ml/lab/dreamer_tscc_encoder.pth (torch, 82961 bytes, 14 tensors)

encoder.0.weight f4 [32, 1, 5]
0.2325826 -0.45230383 0.41030726 -0.1505958 0.33933547 0.23358418 0.25747132 -0.16232106
0.047184184 -0.38643846 0.23602945 -0.3951382 -0.4884195 0.20695126 -0.070461564 -0.39036027
-0.28480378 0.15622678 -0.24169259 0.30931684 0.36655247 0.11319762 -0.41371763 -0.16629675
-0.0044052536 0.05849036 -0.32460958 -0.3936817 0.02010455 0.059159238 -0.17595473 -0.026147794
-0.44141746 0.1389175 0.12179548 0.030732159 -0.31195664 0.27039486 0.2636752 0.39521572
-0.23593083 -0.33327314 0.19415502 -0.17287883 -0.2438785 -0.36112592 -0.1746986 0.49277988
0.3398082 -0.39060646 0.3136512 -0.0421254 -0.28500733 0.054226145 -0.0048343255 -0.09595088
0.44443354 -0.39999357 -0.14199062 0.0057280115 -0.30571 0.11274536 0.014960494 0.13407363
-0.24743296 -0.085127205 0.23914076 -0.44386435 -0.21929017 0.35361248 -0.28272206 -0.23761292
-0.36608294 -0.31997296 -0.36422473 0.033058338 0.15479778 0.14056589 0.31472442 0.4306188
-0.3314507 -0.02196641 0.07764361 -0.090912886 -0.15788141 0.23756741 0.34460354 -0.3244638
-0.40030256 0.19005024 -0.13734402 -0.40145588 0.30676877 -0.15064488 0.34676448 0.28383285
0.20742312 0.22528845 0.176392 0.2615306 0.24735379 0.08576093 0.13990627 0.32401988
-0.546882 -0.116076805 0.13149408 -0.19875854 -0.2539629 0.41710487 0.36530033 -0.17329392
0.057943925 0.04281562 -0.29652566 0.016476534 -0.10653835 0.33879915 -0.048883222 -0.016468706
-0.070485786 0.22798067 -0.32091418 -0.45419925 0.39078906 -0.062831156 0.18147664 0.20724636
-0.12916201 -0.1981817 -0.036731128 -0.05935705 0.48034173 -0.061030425 -0.404032 -0.05958944
0.10021341 0.0034884498 0.40348235 -0.16589653 -0.18123214 -0.040508013 0.43872488 0.22074966
0.33474374 -0.19579287 0.4061508 -0.059109937 -0.13566189 -0.57700205 0.33320174 0.34426942
0.33230555 -0.34094715 0.39665648 0.39385346 -0.044764094 -0.30759346 0.06599254 -0.37741536
00000000: 222a 6e3e 5e94 e7be cb13 d23e c935 1abe
00000010: 61bd ad3e b130 6f3e 48d3 833e 7e37 26be
00000020: 3444 413d 43db c5be b4b1 713e 8e4f cabe
00000030: 1f12 fabe 08eb 533e 274e 90bd 4ddd c7be
00000040: cdd1 91be eaf9 1f3e 437e 77be c75e 9e3e
00000050: c4ac bb3e 27d4 e73d ccd2 d3be b249 2abe
00000060: f259 90bb 9693 6f3d 3a33 a6be a690 c9be
00000070: 4cb2 a43c f550 723d 7a2d 34be e633 d6bc
00000080: 7801 e2be 6440 0e3e e96f f93d 02c2 fb3c
00000090: c8b8 9fbe 3271 8a3e 7000 873e b759 ca3e
000000a0: da97 71be c7a2 aabe 93d0 463e 2607 31be
000000b0: 49bb 79be 7fe5 b8be 31e4 32be a54d fc3e
000000c0: 57fb ad3e 92fd c7be e496 a03e af8b 2cbd
000000d0: 7bec 91be 3c1c 5e3d 4369 9ebb e581 c4bd
000000e0: cb8c e33e f5cb ccbe fd65 11be 0bb2 bb3b
000000f0: 0586 9cbe 0ae7 e63d dc1c 753c 994a 093e
00000100: 115f 7dbe 2c57 aebd 51e1 743e 3042 e3be
00000110: 9a8d 60be b20c b53e f2c0 90be cd50 73be
00000120: 396f bbbe 7fd3 a3be aa7b babe 2e68 073d
00000130: 4f83 1e3e 81f0 0f3e 8f23 a13e 117a dc3e
00000140: e8b3 a9be e7f2 b3bc 9d03 9f3d 8930 babd
00000150: aaab 21be df44 733e e06f b03e 1f20 a6be
00000160: 75f4 ccbe 889c 423e e9a3 0cbe a08b cdbe
00000170: cc10 9d3e a742 1abe 1d8b b13e 8a52 913e
00000180: ba66 543e 04b2 663e 1ba0 343e 57e7 853e
00000190: 504a 7d3e 6da3 af3d 9743 0f3e efe5 a53e
000001a0: 7500 0cbf adb9 edbd 62a6 063e 5c87 4bbe
000001b0: 6d07 82be c58e d53e a508 bb3e f673 31be
000001c0: 9c56 6d3d 6e5f 2f3d 36d2 97be ccf9 863c
000001d0: c730 dabd 1577 ad3e c639 48bd 61e9 86bc
000001e0: da5a 90bd c473 693e dd4e a4be ce8c e8be
000001f0: 8115 c83e 9fad 80bd 03d5 393e 6438 543e
00000200: 0c43 04be 25f0 4abe 6173 16bd 6120 73bd
00000210: 5aef f53e 0afb 79bd 48dd cebe 0e14 74bd
00000220: b03c cd3d 7a9e 643b 3d95 ce3e c8e0 29be
00000230: eb94 39be bbeb 25bd 8ca0 e03e 330c 623e
00000240: 8863 ab3e ed7d 48be fff2 cf3e 431d 72bd
00000250: f3ea 0abe 68b6 13bf 6b99 aa3e 1544 b03e
00000260: f423 aa3e a090 aebe 8f16 cb3e 29a7 c93e
00000270: 8e5a 37bd e47c 9dbe 1927 873d 963c c1be

encoder.0.bias f4 [32]
0.4707518 -0.44633234 0.32557526 -0.2592834 0.45307812 -0.3024489 0.086331174 -0.37014213
0.30074826 0.29190883 0.35211608 0.12910491 -0.1649371 -0.43072733 -0.3001383 -0.28208858
0.10861308 -0.22917335 -0.20660925 -0.3991323 -0.2907311 0.053790756 0.44057277 0.0047094068
0.19524892 -0.046716012 -0.39353386 -0.19882755 0.37297353 0.038702168 0.37580138 0.32513916
00000000: 6106 f13e ac85 e4be cdb1 a63e cbc0 84be
00000010: dbf9 e73e 95da 9abe 66ce b03d 4583 bdbe
00000020: adfb 993e 1375 953e 8f48 b43e 1434 043e
00000030: 45e5 28be 4b88 dcbe baab 99be ea6d 90be
00000040: 8970 de3d 6bac 6abe 6091 53be 125b ccbe
00000050: b5da 94be b253 5c3d c192 e13e 5e51 9a3b
00000060: 55ef 473e 4a59 3fbd 457d c9be 7399 4bbe
00000070: 63f6 be3e 2a86 1e3d 0a69 c03e a478 a63e

encoder.1.weight f4 [32]
0.8622044 1.0912689 0.96773696 1.047962 1.0129791 0.9381977 0.957161 0.84829104
1.0147789 1.0787219 0.97036964 0.98816705 1.0051482 1.0219406 0.9722798 0.81107205
1.0089854 0.90482587 1.0326947 0.96108305 0.86276764 1.090392 1.1404104 0.9096737
1.0036583 0.96879196 1.0829728 0.932092 0.8550129 1.0071557 0.8141964 0.9542196
00000000: 6db9 5c3f b3ae 8b3f 9cbd 773f 9e23 863f
00000010: 4da9 813f b92d 703f 8108 753f 9a29 593f
00000020: 46e4 813f 8f13 8a3f 256a 783f 84f8 7c3f
00000030: b2a8 803f f3ce 823f 54e7 783f 6ba2 4f3f
00000040: 6f26 813f aba2 673f 572f 843f 8a09 763f
00000050: 57de 5c3f f791 8b3f f8f8 913f 60e0 683f
00000060: e077 803f c002 783f da9e 8a3f 959d 6e3f
00000070: 20e2 5a3f 7aea 803f 2d6f 503f bc47 743f

encoder.1.bias f4 [32]
-0.15474072 0.010930843 -0.3083015 0.044591885 -0.06373398 -0.08952483 0.0032099674 0.18116824
-0.0063594454 -0.09884702 -0.016692996 -0.24053301 -0.038799103 0.00521144 -0.31880486 0.36716753
-0.07481416 0.0039708843 0.20929457 -0.08715429 -0.14618388 0.18157303 0.014067524 0.09768936
-0.016870577 -0.12501767 -0.07299477 -0.16332456 -0.11105832 -0.09198271 0.35851777 0.4485015
00000000: 5a74 1ebe 4717 333c b2d9 9dbe fba5 363d
00000010: f686 82bd cb58 b7bd 515e 523b 2b84 393e
00000020: e562 d0bb 4e70 cabd c0bf 88bc 494e 76be
00000030: cfeb 1ebd bac4 aa3b 643a a3be 62fd bb3e
00000040: 2b38 99bd 311e 823b 5151 563e f37d b2bd
00000050: 3ab1 15be 48ee 393e 797b 663c 5c11 c83d
00000060: 2a34 8abc a204 00be 487e 95bd 8e3e 27be
00000070: 8b72 e3bd 6e61 bcbd a48f b73e fda1 e53e

encoder.1.running_mean f4 [32]
0.47118 -0.44683725 0.3260099 -0.25929344 0.45324036 -0.3025233 0.08567261 -0.36971897
0.30151886 0.29229012 0.35074916 0.12946525 -0.16459991 -0.429766 -0.29929867 -0.28076163
0.11025349 -0.22914267 -0.20683584 -0.4000767 -0.2922967 0.054935075 0.43984315 0.004074459
0.19597976 -0.046102602 -0.39408264 -0.19857429 0.3723368 0.037457425 0.3769078 0.32529914
00000000: 813e f13e dac7 e4be c5ea a63e 1cc2 84be
00000010: 1f0f e83e 55e4 9abe 1f75 af3d ce4b bdbe
00000020: ae60 9a3e 0da7 953e 6595 b33e 8a92 043e
00000030: e18c 28be 4a0a dcbe ad3d 99be fdbf 8fbe
00000040: 95cc e13d 60a4 6abe c6cc 53be dad6 ccbe
00000050: eaa7 95be 9a03 613d 1f33 e13e 0a83 853b
00000060: ebae 483e 15d6 3cbd 33c5 c9be 0f57 4bbe
00000070: eea2 be3e f56c 193d 0ffa c03e 9c8d a63e

encoder.1.running_var f4 [32]
0.1377898 0.09624891 0.28515616 0.26628202 0.09101857 0.3473108 0.17015105 0.45830876
0.5322963 0.07852697 0.024778163 0.054627746 0.06967877 0.059318814 2.159476 1.0433403
0.23016492 0.0735103 0.07428901 1.1559265 0.15312877 0.031551715 0.050263796 0.03888452
0.08808137 0.028016554 0.053989112 0.08854078 0.62298596 0.34986675 0.99428064 0.16134484
00000000: c518 0d3e 261e c53d fdff 913e 1e56 883e
00000010: f267 ba3d b9d2 b13e 143c 2e3e 72a7 ea3e
00000020: 9244 083f c0d2 a03d 93fb ca3c 58c1 5f3d
00000030: beb3 8e3d 49f8 723d db34 0a40 2d8c 853f
00000040: 5ab0 6b3e 918c 963d d624 983d 66f5 933f
00000050: cacd 1c3e 5f3c 013d 69e1 4d3d 6045 1f3d
00000060: 0164 b43d f982 e53c b023 5d3d de54 b53d
00000070: 027c 1f3f bc21 b33e 2d89 7e3f 9537 253e

encoder.3.weight f4 [64, 32, 5]
-0.018408755 0.08635331 0.09676577 -0.040377945 -0.032349072 -0.02306657 -0.059317913 -0.02454979
-0.023761058 -0.016350808 0.03643139 0.034838106 0.083566196 0.123231575 0.14459434 -0.050488558
-0.010201953 -0.0061695017 0.0151098035 -0.04961303 0.08447538 0.000898418 0.041986227 0.043234546
0.10694606 0.060022186 0.07261145 0.0017258974 0.06435611 0.06137276 -0.009915065 -0.06534283
-0.0129154 0.042788193 0.04380974 0.06971187 0.04067675 -0.044881105 -0.048115823 0.07272543
0.015703732 0.043105632 0.061893485 -0.016830634 -0.032926213 -0.13026212 0.019444508 0.111546256
0.056558743 0.12909545 0.08560359 0.09656558 0.06956547 0.014707929 -0.0020631095 0.046155054
0.058666073 0.115820475 0.14835435 0.08513066 -0.023131916 -0.018691307 0.08656065 0.05751015
0.047969587 0.05394889 0.0912638 0.08835905 -0.008433456 -0.0068121916 -0.100527 0.0061908597
-0.00935004 -0.05906934 -0.06831736 0.019501245 -0.06750321 0.00075463107 -0.030943051 0.045208644
-0.05688364 0.08766246 0.019249491 -0.02878329 -0.0701253 0.041783832 -0.019452725 0.015135126
0.07215073 -0.027033377 0.060092952 0.00994652 0.007876342 0.0027462144 0.09762985 0.008755196
-0.09250397 0.0021099832 -0.059028972 0.07262003 -0.08221818 0.025222303 -0.009361117 -0.061587166
-0.022915699 0.050138112 0.12781002 0.14515635 0.07167428 0.023542076 0.0150810545 0.021017933
0.08576956 -0.041601505 -0.02223263 -0.015596466 0.06603996 -0.04602087 -0.019075911 -0.006319551
-0.0034635605 0.08674588 0.0422862 -0.010520972 0.03922508 0.06070952 0.06625193 0.057286482
0.12702313 0.18044017 0.044241462 0.17023133 0.08573301 0.16036694 0.09964252 -0.010087907
-0.050739918 -0.03860172 0.022310786 -0.033994112 0.004780141 -0.05329668 0.002067625 0.067283876
0.033993956 -0.03019232 0.05280209 0.045267213 0.047973648 0.07376918 -0.04599114 -0.03104946
-0.048849154 0.046032663 0.06295406 -0.009097027 -0.102909096 -0.1493063 -0.1351914 -0.10649977
0.06637456 -0.022738453 -0.029777104 -0.034722544 0.026645305 0.11886099 -0.066129595 -0.021185253
0.012673327 -0.0050748745 0.17706066 0.065181844 0.10578788 0.11115734 0.06896339 0.095355295
0.028438358 0.09869396 0.036464233 0.051703922 -0.0046560396 -0.039002687 -0.045777183 -0.04090256
0.06294607 0.0028139409 0.056578316 -0.05091826 -0.0052727996 0.03983733 0.0043806685 0.007987769
0.06927146 0.036221217 0.018048987 -0.07937862 0.011872311 0.034228817 0.026229795 0.09121651
0.14717689 0.08792524 0.058781717 0.0902248 0.13624471 0.034405172 -0.016274987 0.069120824
0.060671765 -0.064317845 0.06441801 0.013995735 0.061956502 0.060158584 -0.07181355 0.022926908
0.12552482 0.04944858 0.079719834 0.07479566 0.042582694 0.03656581 0.07670579 0.06781577
0.14396039 -0.021464283 -0.043982204 -0.060963653 0.037970882 0.047368754 0.032021523 0.041743223
0.04293147 0.07979319 0.07098264 0.034882 -0.057280943 0.07495663 0.08112767 0.09528946
0.091732726 0.009706157 0.118375 0.1385237 0.04571403 0.07071816 0.057832956 -0.020284425
0.046612114 -0.03474756 0.047449213 0.043533713 -0.04581763 0.09708831 0.10017741 -0.040729187
00000000: f5cd 96bc 01da b03d 222d c63d 5863 25bd
00000010: 7680 04bd 1af6 bcbc 57f7 72bd a41c c9bc
00000020: 8da6 c2bc 21f2 85bc 1539 153d 67b2 0e3d
00000030: c124 ab3d d660 fc3d 8a10 143e 17cd 4ebd
00000040: 1826 27bc 8829 cabb 1c8f 773c 0837 4bbd
00000050: 6e01 ad3d d083 6b3a c0f9 2b3d b516 313d
00000060: 8906 db3d d3d9 753d 50b5 943d 8237 e23a
00000070: 23cd 833d 0162 7b3d cc72 22bc 76d2 85bd
00000080: 1d9b 53bc ac42 2f3d d871 333d 19c5 8e3d
00000090: aa9c 263d 40d5 37bd 1915 45bd 12f1 943d
000000a0: 1da5 803c 888f 303d 0684 7d3d 66e0 89bc
000000b0: a3dd 06bd 6f63 05be 174a 9f3c 5d72 e43d
000000c0: 24aa 673d 9931 043e ef50 af3d 2dc4 c53d
000000d0: 5778 8e3d 87f9 703c 3c35 07bb 150d 3d3d
000000e0: d64b 703d 4933 ed3d 34ea 173e fc58 ae3d
000000f0: 257f bdbc 831e 99bc b646 b13d c38f 6b3d
00000100: c27b 443d 83f9 5c3d 84e8 ba3d 97f5 b43d
00000110: 7a2c 0abc ce38 dfbb 1ae1 cdbd b2dc ca3b
00000120: e930 19bc b1f2 71bd f9e9 8bbd 13c1 9f3c
00000130: 1f3f 8abd 6fd2 453a 487c fdbc b32c 393d
00000140: d2fe 68bd 6088 b33d 1cb1 9d3c efca ebbc
00000150: da9d 8fbd 8625 2b3d 525b 9fbc 52f9 773c
00000160: c3c3 933d 1a75 ddbc 0724 763d bbf6 223c
00000170: c60b 013c d5f9 333b 29f2 c73d f471 0f3c
00000180: b972 bdbd a547 0a3b 5dc8 71bd cfb9 943d
00000190: 0162 a8bd 019f ce3c 5f5f 19bc d342 7cbd
000001a0: b4b9 bbbc 9f5d 4d3d a1e0 023e dea3 143e
000001b0: f7c9 923d 50db c03c 8716 773c cd2d ac3c
000001c0: f3a7 af3d 5766 2abd 3421 b6bc 5288 7fbc
000001d0: f53f 873d 6180 3cbd 1645 9cbc 3c14 cfbb
000001e0: e7fc 62bb d3a7 b13d 4b34 2d3d 2860 2cbc
000001f0: 7aaa 203d 8caa 783d 18af 873d 3ba5 6a3d
00000200: 5a12 023e 4fc5 383e 8936 353d 1f51 2e3e
00000210: ca94 af3d 3b37 243e 6111 cc3d c047 25bc
00000220: a9d4 4fbd d61c 1ebd 1cc5 b63c 693d 0bbd
00000230: bba2 9c3b 9f4d 5abd fe80 073b 21cc 893d
00000240: 3f3d 0b3d e255 f7bc 0147 583d 1d6a 393d
00000250: 0480 443d 4c14 973d 3561 3cbd 705b febc
00000260: 0d16 48bd bf8c 3c3d 0fee 803d b20b 15bc
00000270: 01c2 d2bd c0e3 18be 9d6f 0abe 8d1c dabd
00000280: 63ef 873d fe45 babc 1def f3bc 3a39 0ebd
00000290: 4147 da3c 646d f33d f46e 87bd b28c adbc
000002a0: c9a3 4f3c 224b a6bb 644f 353e 0f7e 853d
000002b0: 51a7 d83d 76a6 e33d ae3c 8d3d a349 c33d
000002c0: 8ff7 e83c 0f20 ca3d 855b 153d 7ec7 533d
000002d0: b191 98bb 48c1 1fbd db80 3bbd 7189 27bd
000002e0: dfe9 803d 186a 383b aabe 673d aa8f 50bd
000002f0: 73c7 acbb 782c 233d b68b 8f3b 22df 023c
00000300: 32de 8d3d b35c 143d 78db 933c 4291 a2bd
00000310: 1584 423c 8433 0c3d dedf d63c b9cf ba3d
00000320: 8ab5 163e 2612 b43d 19c5 703d c8c7 b83d
00000330: bc83 0b3e 70ec 0c3d 1f53 85bc 388f 8d3d
00000340: f582 783d 13b9 83bd 97ed 833d 5e4e 653c
00000350: 1ac6 7d3d d968 763d fc12 93bd 36d1 bb3c
00000360: 9489 003e 988a 4a3d 2744 a33d 782e 993d
00000370: 316b 2e3d 08c6 153d ed17 9d3d ffe2 8a3d
00000380: 5a6a 133e ddd5 afbc af26 34bd 06b5 79bd
00000390: 5b87 1b3d bd05 423d 0029 033d f1fa 2a3d
000003a0: e9d8 2f3d 9d6a a33d 595f 913d 6ee0 0e3d
000003b0: 6c9f 6abd dd82 993d 4426 a63d 1f27 c33d
000003c0: 5ede bb3d 9306 1f3c 986e f23d 28d9 0d3e
000003d0: a23e 3b3d afd4 903d 40e2 6c3d 862b a6bc
000003e0: 58ec 3e3d 7553 0ebd 1b5a 423d 6850 323d
000003f0: 44ab 3bbd 3cd6 c63d d029 cd3d a6d3 26bd

encoder.3.bias f4 [64]
0.0345198 -0.051893096 0.056192428 -0.06825049 0.029088994 0.03252909 0.05704282 0.10614669
-0.060393054 -0.047047075 -0.0064115287 0.01977386 -0.09208883 0.04144532 -0.07298765 -0.039346665
-0.05497185 0.07383209 -0.059359893 -0.029652543 0.044628434 -0.06175012 0.019856693 0.053297877
-0.029357472 -0.0020300574 -0.0315231 -0.035582904 -0.0647878 -0.14991736 0.05224706 -0.12442338
0.052814413 0.030145768 0.038111176 0.08892953 -0.0017866996 0.041921407 0.007971032 0.020736186
0.057787687 -0.066519804 0.016837336 -0.13730946 -0.07458197 -0.0018787527 -0.008663695 -0.045302942
-0.07091931 -0.05529298 0.06685961 -0.06912881 0.016765282 0.008520335 0.0929736 -0.089533545
-0.10469407 0.09303216 -0.038647994 -0.045284715 -0.08733316 0.017211486 0.15935662 -0.16101097
00000000: a264 0d3d db8d 54bd 082a 663d eac6 8bbd
00000010: 0b4c ee3c 393d 053d bba5 693d 7063 d93d
00000020: b55e 77bd 6fb4 40bd cd17 d2bb cafc a13c
00000030: 1299 bcbd 91c2 293d 8d7a 95bd f829 21bd
00000040: 2a2a 61bd 4735 973d 5c23 73bd e4e9 f2bc
00000050: 4ecc 363d b2ed 7cbd 81aa a23c e04e 5a3d
00000060: 157f f0bc b60a 05bb 5e1e 01bd 61bf 11bd
00000070: 77af 84bd f083 19be 0301 563d afd1 febd
00000080: ed53 583d 42f4 f63c 771a 1c3d af20 b63d
00000090: b12f eaba c8b5 2b3d ee98 023c efde a93c
000000a0: c8b2 6c3d 893b 88bd 74ee 893c da9a 0cbe
000000b0: 6fbe 98bd 7b40 f6ba 2cf2 0dbc 948f 39bd
000000c0: 253e 91bd e47a 62bd b1ed 883d 6893 8dbd
000000d0: 5857 893c e098 0b3c f168 be3d 5d5d b7bd
000000e0: d869 d6bd a587 be3d 5c4d 1ebd 777c 39bd
000000f0: badb b2bd 1aff 8c3c 622e 233e 0fe0 24be

encoder.4.weight f4 [64]
1.030053 0.99111855 1.0133505 1.001412 1.0070916 1.017511 1.0875535 1.0162804
1.0016725 1.0116286 0.9711844 1.0184085 0.99335223 1.0936637 0.99982643 1.0872915
0.98623836 1.0765761 1.0111094 0.98085517 0.99800235 1.0634484 1.0347363 0.9886887
1.0093827 1.0054146 1.022833 1.0763671 1.0077538 1.0059916 1.0293167 1.08248
1.019998 0.9886617 0.99853253 1.005423 1.0209035 1.0095224 0.9784015 1.0207778
1.0125289 1.0008527 1.0272936 0.99901253 0.9884409 1.0051289 1.0211401 0.9852081
0.9950419 0.98956436 1.0200799 0.9998237 0.9920082 0.9836465 1.0340987 1.0868094
1.0100816 0.9678305 1.0321839 0.99259335 1.0181558 0.9706175 1.0156633 1.0198123
00000000: c7d8 833f f2b9 7d3f 78b5 813f 452e 803f
00000010: 61e8 803f cd3d 823f f434 8b3f 7a15 823f
00000020: ce36 803f 0c7d 813f 8a9f 783f 365b 823f
00000030: 554c 7e3f 2cfd 8b3f a0f4 7f3f 5e2c 8b3f
00000040: 1e7a 7c3f 3fcd 893f 086c 813f 5319 7b3f
00000050: 157d 7f3f 141f 883f 3d72 843f b41a 7d3f
00000060: 7433 813f 6db1 803f 31ec 823f 66c6 893f
00000070: 14fe 803f 55c4 803f a6c0 833f b48e 8a3f
00000080: 4b8f 823f ef18 7d3f d49f 7f3f b3b1 803f
00000090: f7ac 823f 0838 813f 8578 7a3f d9a8 823f
000000a0: 8c9a 813f f11b 803f 5b7e 833f 49bf 7f3f
000000b0: 760a 7d3f 10a8 803f b8b4 823f 9936 7c3f
000000c0: 11bb 7e3f 1754 7d3f fa91 823f 72f4 7f3f
000000d0: 40f4 7d3f 42d0 7b3f 595d 843f 921c 8b3f
000000e0: 5b4a 813f bdc3 773f 9a1e 843f 991a 7e3f
000000f0: ee52 823f 637a 783f 4101 823f 3689 823f

encoder.4.bias f4 [64]
-0.0802171 -0.1913964 -0.019406602 -0.082613066 -0.06601214 -0.13980442 0.020454505 0.0075382823
-0.07569588 0.011908529 -0.04773469 0.008125953 -0.06861644 -0.037027158 -0.21230313 -0.01848138
-0.03593913 0.027035639 -0.021469062 -0.022552995 -0.13046615 -0.043536957 0.023811322 -0.12986508
-0.021954203 -0.012564638 -0.016066426 -0.016589778 0.014798797 -0.03936329 0.00039278815 -0.03531572
-0.0096859895 -0.039720293 -0.04394825 -0.012093827 -0.007792339 -0.13754901 -0.047539316 0.023096414
0.015871944 -0.023943078 0.032288287 -0.03373636 -0.05291655 -0.008267266 -0.00096909876 -0.023712073
-0.058521498 -0.027157636 0.016127778 0.011347246 -0.011141287 -0.05243404 -0.07873485 -0.05804569
-0.011645806 -0.035749473 -0.030631784 -0.09290595 0.005733171 -0.11453829 -0.06006746 0.02779566
00000000: dd48 a4bd 6bfd 43be 98fa 9ebc 0a31 a9bd
00000010: 5f31 87bd e428 0fbe 3590 a73c b203 f73b
00000020: 7106 9bbd fe1b 433c 7385 43bd b822 053c
00000030: c786 8cbd caa9 17bd fe65 59be 4366 97bc
00000040: e934 13bd d879 dd3c e3df afbc 0fc1 b8bc
00000050: eb98 05be cf53 32bd f60f c33c 5afb 04be
00000060: 4dd9 b3bc e9db 4dbc bd9d 83bc 49e7 87bc
00000070: a776 723c 673b 21bd 22ef cd39 37a7 10bd
00000080: fcb1 1ebc bfb1 22bd 1503 34bd 3025 46bc
00000090: e156 ffbb a6d9 0cbe 96b8 42bd b134 bd3c
000000a0: e105 823c 4624 c4bc b940 043d 232f 0abd
000000b0: 06bf 58bd 6d73 07bc 1e0b 7eba d23f c2bc
000000c0: 3db4 6fbd b179 debc 671e 843c cde9 393c
000000d0: f289 36bc 13c5 56bd bd3f a1bd 51c1 6dbd
000000e0: 0dce 3ebc 0a6e 12bd 82ef fabc 7a45 bebd
000000f0: 53dd bb3b 0d93 eabd 4c09 76bd b9b3 e33c

encoder.4.running_mean f4 [64]
0.44598588 1.3354973 0.5830153 0.096796736 0.74478215 1.2275468 0.050296634 -1.2250928
1.2431904 -1.2638707 -0.66659635 -1.3936341 -0.32632267 -0.13105218 1.1756295 -0.24346736
-0.58246565 -0.107661225 -0.66337836 -0.81812155 1.1613399 -0.43586737 -0.37311018 0.530611
0.056495924 -0.71332407 -0.40509093 -0.16783218 -0.6381082 -0.3927031 -0.19781137 -0.42728403
-0.52649677 -0.8077223 -0.29300994 -0.52748406 0.29380736 1.3648293 -1.1161067 -0.62503076
-1.1574876 -0.42622936 -1.3454784 0.620591 0.35198197 -1.0294864 0.40930197 -0.694846
0.13611259 -0.34315622 0.11253172 -1.2125427 -0.7597321 -0.69673455 -0.10684693 -0.19044904
-0.7891005 -1.183501 -0.172999 -0.717181 -0.6325343 1.1239998 0.6267 -1.3977804
00000000: 4358 e43e 93f1 aa3f 7e40 153f 5e3d c63d
00000010: 0baa 3e3f 4120 9d3f d803 4e3d d7cf 9cbf
00000020: dd20 9f3f 84c6 a1bf 0fa6 2abf 9a62 b2bf
00000030: c413 a7be 8b32 06be 077b 963f 824f 79be
00000040: 781c 15bf 7d7d dcbd 2ad3 29bf 6a70 51bf
00000050: c9a6 943f 022a dfbe 4c08 bfbe 1fd6 073f
00000060: 4568 673d 689c 36bf 1468 cfbe 33dc 2bbe
00000070: 0f5b 23bf 6110 c9be 108f 4abe f9c4 dabe
00000080: 7ec8 06bf e3c6 4ebf 6605 96be 3209 07bf
00000090: eb6d 963e bab2 ae3f 96dc 8ebf 0402 20bf
000000a0: 8e28 94bf bc3a dabe a338 acbf 0ddf 1e3f
000000b0: fb36 b43e 36c6 83bf 0790 d13e 6de1 31bf
000000c0: 1961 0b3e 2cb2 afbe 0877 e63d 9934 9bbf
000000d0: ce7d 42bf 325d 32bf 90d2 dabd 1305 43be
000000e0: 7e02 4abf f67c 97bf a626 31be 2d99 37bf
000000f0: c5ed 21bf 3adf 8f3f 696f 203f 78ea b2bf

encoder.4.running_var f4 [64]
0.922808 1.6071321 0.6346917 0.090719245 1.722689 1.5469258 0.4413443 2.0693407
2.0026197 1.9156865 0.887051 1.2540988 0.31205374 0.17730436 1.7073029 0.16033062
0.6762663 0.43976432 0.716019 0.71515054 1.1206622 0.19390583 0.38729662 0.6961167
0.6923545 0.75412 1.064557 0.4637477 1.645667 0.14998648 0.91661495 0.20845503
0.6470543 0.6845203 0.3006494 0.57992315 0.54621136 1.5786875 2.2051983 1.6670848
1.9998072 0.18974075 2.2195199 1.252358 1.1626955 1.7488209 0.6047505 1.2799488
0.35030088 0.42928296 0.8341489 0.86736405 2.104487 0.67177314 0.23929915 0.16395819
0.46542537 2.750666 0.11292449 0.6831981 0.42642173 2.896463 0.75926423 1.3434885
00000000: 253d 6c3f 81b6 cd3f 287b 223f 03cb b93d
00000010: 1381 dc3f aa01 c63f e1f7 e13e 1470 0440
00000020: ec2a 0040 3735 f53f c615 633f 4f86 a03f
00000030: 82c5 9f3e 468f 353e e788 da3f b62d 243e
00000040: ca1f 2d3f ca28 e13e 054d 373f 1b14 373f
00000050: dc71 8f3f 408f 463e be4b c63e b434 323f
00000060: 253e 313f 020e 413f 6743 883f 5770 ed3e
00000070: 37a5 d23f 0e96 193e 47a7 6a3f 3c75 553e
00000080: 5aa5 253f b93c 2f3f b8ee 993e d875 143f
00000090: 82d4 0b3f 6f12 ca3f f821 0d40 0963 d53f
000000a0: aff9 ff3f 664b 423e 9d0c 0e40 444d a03f
000000b0: 35d3 943f 5dd9 df3f eed0 1a3f 5dd5 a33f
000000c0: a35a b33e faca db3e c88a 553f 920b 5e3f
000000d0: eaaf 0640 53f9 2b3f d60a 753e a8e4 273e
000000e0: 3c4c ee3e e90a 3040 f444 e73d 12e6 2e3f
000000f0: f353 da3e a65f 3940 245f 423f 6ef7 ab3f

fc.weight f4 [128, 64]
-0.033985976 0.0755267 0.009786637 -0.1161958 0.09668613 0.07653966 -0.013906298 0.08210267
-0.031986747 0.10363832 0.012639788 0.04805485 0.09203013 -0.04844448 -0.10454576 0.07050974
0.061877336 0.052186042 0.05459616 -0.058008976 0.10498766 -0.12855722 0.06505967 -0.02731356
0.011894191 0.075214684 0.033233672 -0.08627345 0.020437798 -0.09968199 0.026137162 -0.06987968
-0.111223176 0.042249504 0.07651743 0.054154582 -0.045447208 0.06652577 0.013543338 0.09229135
-0.005444933 0.03329413 0.055709686 0.105625145 0.07370183 0.110659614 0.0778568 0.061474275
-0.09702855 0.07106625 -0.00040294725 -0.08454368 0.052563608 -0.036676012 -0.08759502 0.099475645
0.003315712 -0.091055155 0.09007725 0.07755639 -0.11730443 0.0056935954 -0.058803413 0.027092895
0.016334852 -0.101542294 0.028901415 -0.09968253 0.10480643 -0.089687765 0.12635492 -0.09638599
0.06153542 -0.0009821053 0.10418026 -0.08059404 -0.022513939 0.020992486 -0.12844199 -0.022041585
0.06392157 -0.037819557 -0.108645655 0.010545997 0.005507306 -0.044419978 0.12430786 0.031789735
0.1174281 0.06732478 0.080934934 0.09868998 -0.13903853 -0.002604541 0.093579374 0.0891978
0.037408475 -0.09553756 0.076630555 0.05288336 0.010749918 0.09643733 -0.045794047 0.020330325
0.024605533 0.018937487 -0.09625335 0.08800366 -0.064307995 -0.036235612 0.07948329 0.06901283
0.011439613 -0.10876504 0.053334177 0.040985413 0.08755265 0.073588945 0.028171122 0.0015545589
0.04158763 0.0481714 -0.032619048 -0.1219662 0.01257377 -0.1257339 0.09710539 -0.08544448
0.009043265 -0.037961505 -0.04648614 -0.06782111 0.037424427 -0.012616692 -0.042336807 0.10926102
0.025420919 0.023733547 -0.0746371 0.13126765 -0.124487855 0.08230231 0.06429515 -0.08617763
0.111246 -0.0014889282 0.020540675 0.09622967 0.07405099 0.10033954 -0.12845574 0.09508148
0.0036950284 0.07956787 -0.018410536 -0.024799434 0.011241722 0.045125466 -0.007285095 -0.09084797
-0.086292535 -0.10737727 -0.062419 -0.10761338 0.031137338 0.14625174 -0.07634825 -0.12239447
0.1346035 0.09338351 -0.08905109 0.032024484 -0.06624714 -0.114503674 -0.07182819 -0.049157582
0.061357576 -0.04346754 0.019892609 -0.076017216 0.08679014 0.008062361 -0.11675237 -0.015838442
0.1500844 0.035977 0.1568597 -0.13088886 -0.103822425 -0.05073071 0.10627915 0.08192012
0.0764948 -0.03603535 -0.11280435 0.06931742 0.049608417 -0.05106061 0.09374631 0.04489945
-0.0036089267 0.05648734 -0.111045666 0.09998352 -0.025093533 0.0553565 -0.07143573 -0.16385905
0.0911727 -0.009381304 0.020299414 -0.07133319 -0.048485972 0.042664796 0.043807447 0.098635875
0.102023594 -0.050246637 -0.100222655 -0.08813706 -0.037648153 -0.073992066 0.044649795 -0.068637855
0.088235654 0.05963559 0.0023945726 -0.012617962 0.075134106 0.11052207 0.04752213 -0.08659172
-0.0861556 0.058895063 -0.124227464 0.06522463 0.08225154 -0.06249326 0.0100639025 0.11621289
0.027817799 -0.034606483 -0.09516398 0.030829964 0.041154306 0.017116286 -0.030697018 -0.007649031
-0.1082351 -0.08398979 0.022728924 -0.024747225 0.060794663 -0.110551536 0.08867467 -0.00819501
00000000: e134 0bbd bead 9a3d 2158 203c 10f8 edbd
00000010: 6103 c63d d3c0 9c3d 3ed7 63bc 7225 a83d
00000020: 8904 03bd 5440 d43d 1d17 4f3c 2ad5 443d
00000030: 4b7a bc3d b86d 46bd 161c d6bd 6967 903d
00000040: 1773 7d3d 08c1 553d 39a0 5f3d d29a 6dbd
00000050: c503 d73d 81a4 03be 013e 853d b0c0 dfbc
00000060: dadf 423c 280a 9a3d 0820 083d 22b0 b0bd
00000070: 2b6d a73c 1226 ccbd 9a1d d63c 141d 8fbd
00000080: fac8 e3bd d10d 2d3d 2cb5 9c3d 32d1 5d3d
00000090: da26 3abd aa3e 883d e0e4 5d3c 3f03 bd3d
000000a0: 696b b2bb 6d5f 083d d72f 643d ff51 d83d
000000b0: fcf0 963d 82a1 e23d 6373 9f3d 73cc 7b3d
000000c0: e8b6 c6bd 2f8b 913d aa42 d3b9 3d25 adbd
000000d0: f04c 573d 9639 16bd 0565 b3bd e3b9 cb3d
000000e0: 6b4c 593b 207b babd 6c7a b83d e2d5 9e3d
000000f0: 4e3d f0bd 5791 ba3b d9db 70bd ebf1 dd3c
00000100: abd0 853c 68f5 cfbd a9c2 ec3c 5b26 ccbd
00000110: c1a4 d63d 38ae b7bd 2f63 013e 0566 c5bd
00000120: 910c 7c3d fcb9 80ba 765c d53d 7d0e a5bd
00000130: 276f b8bc 6ff8 ab3c 4c86 03be 8e90 b4bc
00000140: 50e9 823d aee8 1abd 9d81 debd 1ec9 2c3c
00000150: a276 b43b b9f1 35bd 1f95 fe3d f435 023d
00000160: 257e f03d 93e1 893d 37c1 a53d f91d ca3d
00000170: 1e60 0ebe f2b0 2abb 8ba6 bf3d 56ad b63d
00000180: a139 193d 32a9 c3bd 7bf0 9c3d 399c 583d
00000190: 6d20 303c ef80 c53d 8a92 3bbd c88b a63c
000001a0: 8b91 c93c ca22 9b3c 7a20 c5bd 433b b43d
000001b0: e9b3 83bd cb6b 14bd 23c8 a23d 9956 8d3d
000001c0: 376d 3b3c 35c0 debd f074 5a3d 52e0 273d
000001d0: ce4e b33d cdb5 963d 20c7 e63c 57c2 cb3a
000001e0: ca57 2a3d 604f 453d 8d9b 05bd 6ac9 f9bd
000001f0: 3702 4e3c 63c0 00be 31df c63d 84fd aebd
00000200: 342a 143c 867d 1bbd 4068 3ebd cbe5 8abd
00000210: 5b4a 193d 3eb6 4ebc 5c69 2dbd 3ec4 df3d
00000220: 883f d03c db6c c23c 56db 98bd 076b 063e
00000230: 7df3 febd 1d8e a83d 2dad 833d e67d b0bd
00000240: f1d4 e33d 2428 c3ba eb44 a83c 1014 c53d
00000250: 0ca8 973d d17e cd3d e789 03be 14ba c23d
00000260: 4a28 723b 7bf4 a23d b1d1 96bc 2f28 cbbc
00000270: 332f 383c 7bd5 383d ceb7 eebb 800e babd
00000280: 24ba b0bd 9de8 dbbd 11ab 7fbd 6764 dcbd
00000290: bb13 ff3c 04c3 153e 795c 9cbd f4a9 fabd
000002a0: 80d5 093e db3f bf3d 6b60 b6bd 1b2c 033d
000002b0: 95ac 87bd e780 eabd a81a 93bd 7659 49bd
000002c0: 1552 7b3d 050b 32bd d3f5 a23c eaae 9bbd
000002d0: 07bf b13d fe17 043c de1b efbd 9fbf 81bc
000002e0: baaf 193e 9e5c 133d d49f 203e bb07 06be
000002f0: daa0 d4bd 01cb 4fbd e2a8 d93d bcc5 a73d
00000300: 4ea9 9c3d ce99 13bd f805 e7bd 4bf6 8d3d
00000310: 3232 4b3d ee24 51bd 11fe bf3d 7ce8 373d
00000320: be83 6cbb 455f 673d e96b e3bd 29c4 cc3d
00000330: f490 cdbc 7fbd 623d e54c 92bd abca 27be
00000340: c1b8 ba3d 0ab4 19bc f54a a63c 2317 92bd
00000350: 3a99 46bd 48c1 2e3d 706f 333d 9b01 ca3d
00000360: bff1 d03d 6bcf 4dbd 8941 cdbd 3481 b4bd
00000370: f334 1abd 2789 97bd b4e2 363d 0192 8cbd
00000380: e5b4 b43d 7344 743d 43ee 1c3b 92bb 4ebc
00000390: e9df 993d 6559 e23d 91a6 423d 0057 b1bd
000003a0: 5972 b0bd f33b 713d f86a febd 7e94 853d
000003b0: 7f73 a83d eff8 7fbd 11e3 243c 0601 ee3d
000003c0: 27e2 e33c 87bf 0dbd 55e5 c2bd 1f8f fc3c
000003d0: 6b91 283d 7437 8c3c 5078 fbbc b9a4 fabb
000003e0: 5daa ddbd d702 acbd 0232 ba3c b1ba cabc
000003f0: d303 793d d868 e2bd 119b b53d 5d44 06bc

fc.bias f4 [128]
-0.062717095 -0.05186635 -0.08768482 0.05346773 -0.12398824 -0.11523629 -0.06623188 -0.066562116
-0.007900398 0.03873801 0.06689154 0.061814595 0.031980388 -0.02551882 0.10875178 0.006374911
0.1153327 -0.0981607 -0.06131629 -0.008731343 -0.09152695 0.1204088 -0.0074103 0.053602576
-0.057594698 -0.102663875 -0.0043001478 -0.10907103 -0.0840628 0.0028913107 0.10774988 -0.07200834
-0.050453454 -0.087645374 -0.086617604 0.005052721 0.09828938 0.09392208 0.13339478 0.08040579
0.07677217 -0.12672119 0.034236085 -0.11250396 -0.077426895 -0.11729852 0.14170602 -0.029312367
0.07462973 -0.08133247 -0.08581229 0.11847873 -0.086374044 -0.10012599 -0.028070508 0.097670466
0.10546687 -0.06573868 -0.098135285 -0.10251365 0.10383295 0.13203697 -0.11225566 0.06654321
-0.00813116 0.083055094 0.044193026 -0.011160543 -0.013427648 0.12730145 -0.078284115 -0.034048025
-0.09839616 -0.10072893 0.0058470126 0.05716485 0.003583408 0.11334064 -0.09882596 -0.02229987
0.0903321 0.05335624 0.07954675 -0.02702855 -0.0014808838 0.037061375 -0.09653287 0.10953005
0.12331742 0.020298619 0.13310191 -0.08993459 -0.021864183 -0.091968 -0.07550188 0.07192305
-0.1292093 -0.06974448 -0.016716257 -0.008345702 0.08951944 -0.12093365 0.12943421 -0.13198541
0.085561395 0.07081579 0.13144208 0.003552731 -0.0011284238 -0.025732275 0.019763382 0.14573285
0.107135 0.0417746 -0.041343603 -0.0076257503 0.052992977 0.120083876 0.047587134 -0.07630254
-0.090651676 0.011106335 -0.015530909 0.046649348 0.056634817 0.103094235 0.076616146 -0.10691052
00000000: d271 80bd cf71 54bd 1994 b3bd fa00 5b3d
00000010: 8ced fdbd 0101 ecbd 94a4 87bd b851 88bd
00000020: ac70 01bc bfab 1e3d 6ffe 883d 4d31 7d3d
00000030: defd 023d d80c d1bc 41b9 de3d a1e4 d03b
00000040: 8d33 ec3d 7a08 c9bd ca26 7bbd e80d 0fbc
00000050: 7b72 bbbd e498 f63d 1ad2 f2bb 608e 5b3d
00000060: 6be8 6bbd 7041 d2bd 41e8 8cbb a260 dfbd
00000070: 1e29 acbd 257c 3d3b f8ab dc3d 1c79 93bd
00000080: 48a8 4ebd 6b7f b3bd 9264 b1bd 4c91 a53b
00000090: f14b c93d 385a c03d a498 083e caab a43d
000000a0: ba3a 9d3d 33c3 01be 233b 0c3d 7a68 e6bd
000000b0: fe91 9ebd 353a f0bd 621b 113e 7d20 f0bc
000000c0: 79d7 983d a391 a6bd 5bbe afbd faa4 f23d
000000d0: e0e4 b0bd db0e cdbd 1ff4 e5bc 7407 c83d
000000e0: 04ff d73d 00a2 86bd 27fb c8bd adf2 d1bd
000000f0: 5fa6 d43d b334 073e 4ce6 e5bd ce47 883d
00000100: 8f38 05bc ca18 aa3d bf03 353d b6da 36bc
00000110: a3ff 5bbc 505b 023e 6c53 a0bd f175 0bbd
00000120: ed83 c9bd f84a cebd 4c98 bf3b b125 6a3d
00000130: 9cd7 6a3b 231f e83d 4465 cabd 38ae b6bc
00000140: 0900 b93d 138c 5a3d 68e9 a23d fa6a ddbc
00000150: 371a c2ba abcd 173d 06b3 c5bd 4a51 e03d
00000160: d88d fc3d 4a49 a63c de4b 083e a02f b8bd
00000170: 841c b3bc b859 bcbd bba0 9abd 644c 933d
00000180: 714f 04be 32d6 8ebd 88f0 88bc 69bc 08bc
00000190: f855 b73d 10ac f7bd 678a 043e 2f27 07be
000001a0: d03a af3d de07 913d c198 063e efd4 683b
000001b0: 9fe7 93ba 7ecc d2bc d1e6 a13c fe3a 153e
000001c0: 9869 db3d d81b 2b3d e957 29bd 6ee1 f9bb
000001d0: 2a0f 593d 89ee f53d baea 423d 8244 9cbd
000001e0: 96a7 b9bd 58f7 353c 5b75 7ebc 6313 3f3d
000001f0: e9f9 673d 1223 d33d ede8 9c3d e7f3 dabd
